hacks/smoothflows/demo_model_ode_flow_v9.pt (torch_old, 42026 bytes, 20 tensors)

chain.0.odefunc.odefunc.diffeq.layers.0._layer.weight f4 [64, 2]
-0.7535823 0.7787963 -0.12304493 0.48638526 -0.56836474 0.42138624 -0.40160617 0.07732897
0.45790574 -0.44823018 0.5262678 0.14240034 -0.11510209 -0.59653914 -0.6349882 0.5170755
-0.8041027 0.01824687 0.3581673 -0.6897408 -0.06507984 0.4125649 -0.7212691 -0.29988065
-0.7882235 0.04534221 0.10065276 -0.79232436 -0.66499937 0.50073516 -0.43158484 -0.7313834
0.21721143 0.88041174 -0.8265152 -0.45228145 0.16124068 -0.57231057 -0.41777837 0.7769629
0.40480947 -0.17506531 -0.5912951 -0.49565187 0.49515274 -0.034687042 -0.64225876 0.72903836
-0.14655542 -0.35042146 0.48847434 0.03165059 0.3474841 -0.5441443 -0.69231766 0.7259162
-0.5797104 -0.0631567 -0.38925493 -0.62170595 -0.75118303 0.85932475 -0.05953311 0.8535989
0.22655095 0.565335 0.4145356 0.017261485 -0.3312011 0.49359813 -0.57371795 -0.023471864
-0.6214665 -0.2080627 -0.55743635 -0.008535947 0.19149381 0.97822165 0.26399314 -0.68913895
-0.36658934 0.59330875 0.6138106 -0.0047439234 -0.5539637 -0.0989179 -0.4158461 0.08557278
0.6996031 -0.33778182 -0.60085523 0.59091985 0.40320477 -0.6658638 -0.27051923 0.40099642
-0.32981068 0.44076428 -0.77552086 0.21675739 -0.16285288 -0.6836688 0.023398392 0.5312727
0.44182387 0.013495981 0.7945734 0.29235163 0.109715775 -0.35668686 0.48958498 -0.10600139
-0.063840985 -0.5706748 -0.16238272 0.72753555 0.7611302 -0.58102477 -0.660892 0.5560843
-0.10893884 -0.8696413 0.3776423 0.41026187 0.79873186 0.1508755 -0.4780604 0.05909982
00000000: c5ea 40bf 325f 473f fbfe fbbd 7d07 f93e
00000010: 5a80 11bf f0bf d73e 539f cdbe a75e 9e3d
00000020: 9f72 ea3e 6d7e e5be 7db9 063f 65d1 113e
00000030: a5ba ebbd cab6 18bf 968e 22bf 0f5f 043f
00000040: add9 4dbf 767a 953c b461 b73e da92 30bf
00000050: 9448 85bd b53b d33e 17a5 38bf f589 99be
00000060: 04c9 49bf c1b8 393d 0923 ce3d c5d5 4abf
00000070: 663d 2abf 2e30 003f b0f8 dcbe f13b 3bbf
00000080: ac6c 5e3e aa62 613f 8096 53bf 6f91 e7be
00000090: 471c 253e f282 12bf 0ce7 d5be 0ae7 463f
000000a0: 3043 cf3e 5244 33be 1e5f 17bf 15c6 fdbe
000000b0: a984 fd3e 0014 0ebd 126b 24bf 42a2 3a3f
000000c0: a012 16be 716a b3be 4f19 fa3e 0da4 013d
000000d0: 70e9 b13e 0a4d 0bbf bb3b 31bf a5d5 393f
000000e0: e767 14bf 4d58 81bd 6c4c c7be 1f28 1fbf
000000f0: 884d 40bf b5fc 5b3f fed8 73bd 7585 5a3f
00000100: f9fc 673e cbb9 103f 033e d43e f567 8d3c
00000110: 3193 a9be e5b8 fc3e 2edf 12bf 1148 c0bc
00000120: 6e18 1fbf 630e 55be 26b4 0ebf 5bda 0bbc
00000130: f416 443e bc6c 7a3f 1c2a 873e 696b 30bf
00000140: 99b1 bbbe 15e3 173f b122 1d3f ea72 9bbb
00000150: 91d0 0dbf 7895 cabd c8e9 d4be c840 af3d
00000160: 3019 333f bdf1 acbe a6d1 19bf 8646 173f
00000170: db70 ce3e 0d76 2abf 7f81 8abe 674f cd3e
00000180: f2dc a8be dbab e13e 8988 46bf a6f5 5d3e
00000190: e8c2 26be eb04 2fbf fcad bf3c 7d01 083f
000001a0: bd36 e23e 3f1e 5d3c 2a69 4b3f 1daf 953e
000001b0: aab2 e03d a99f b6be e2aa fa3e 4217 d9bd
000001c0: 10bf 82bd be17 12bf a847 26be c53f 3a3f
000001d0: 6ed9 423f 0abe 14bf 3830 29bf 8a5b 0e3f
000001e0: 541b dfbd d0a0 5ebf 555a c13e d80d d23e
000001f0: b179 4c3f 1b7f 1a3e 55c4 f4be a712 723d

chain.0.odefunc.odefunc.diffeq.layers.0._layer.bias f4 [64]
-0.14712916 0.19245769 -0.4743405 -0.055356517 -0.25531748 0.57775104 0.3452843 0.42368475
-0.10107181 -0.14719144 0.029347593 0.57674944 0.53417176 0.076113075 0.6632247 -0.4314707
-0.62636185 0.6931545 0.48378712 -0.15072419 0.17925063 0.34754777 -0.18454021 0.038697332
-0.42149085 0.59377265 -0.06224367 -0.54654264 0.12709555 0.043923046 -0.4119102 -0.3780024
0.29637083 0.012334544 0.2230456 0.15856957 0.43194324 -0.6995119 -0.7188343 0.64314944
-0.43239203 -0.133579 -0.2214791 -0.6267194 -0.47794077 -0.22636086 0.19492236 0.061628863
0.5152617 0.6305784 0.062076762 0.055767044 -0.23788653 0.12553315 0.26118183 0.2074782
-0.33160055 -0.005486257 -0.061668124 0.08729037 0.514085 0.5241354 -0.6927576 0.091436416
00000000: 07a9 16be a113 453e c2dc f2be 84bd 62bd
00000010: f9b8 82be 7ee7 133f 1bc9 b03e 35ed d83e
00000020: bdfe cebd 5ab9 16be 5d6a f03c daa5 133f
00000030: 7bbf 083f 2ce1 9b3d 18c9 293f bae9 dcbe
00000040: 4059 20bf 9372 313f f2b2 f73e 7157 1abe
00000050: 7a8d 373e c8f1 b13e 1cf8 3cbe 1881 1e3d
00000060: a6cd d7be 7c01 183f 38f3 7ebd 38ea 0bbf
00000070: 5625 023e a7e8 333d e5e5 d2be 8889 c1be
00000080: ebbd 973e d416 4a3c 1166 643e 1060 223e
00000090: aa27 dd3e 3613 33bf 8605 38bf 71a5 243f
000000a0: 7d62 ddbe efc8 08be 6bcb 62be af70 20bf
000000b0: a7b4 f4be 24cb 67be ba99 473e 8c6e 7c3d
000000c0: 31e8 033f 966d 213f 3444 7e3d fc6b 643d
000000d0: 8798 73be c38b 003e a0b9 853e 2a75 543e
000000e0: 8cc7 a9be 0fc6 b3bb b797 7cbd 4bc5 b23d
000000f0: 139b 033f bd2d 063f 9058 31bf 0443 bb3d

chain.0.odefunc.odefunc.diffeq.layers.0._hyper_bias.weight f4 [64, 1]
0.80817807 0.6330945 -0.2762607 -0.05408245 -0.75568956 -0.6075191 -0.15844665 -0.15113214
-0.34753004 0.60544556 -0.7270274 0.61788356 0.06563957 0.027771438 0.6932609 0.36491376
-0.24460213 1.0290829 0.12288039 0.24455787 0.78946084 -1.2645731 0.9410455 0.6021596
0.024406599 -0.22452882 -0.28646347 0.6256535 0.562764 -0.43399963 -0.55986875 1.0854865
0.9530757 -0.6104507 0.9107031 -0.3169485 0.5633558 0.3163033 -1.1247854 0.7449467
-0.4554159 0.98427457 -0.25394288 0.7705435 1.0402023 0.13617815 0.6238922 0.09591832
0.8728694 -0.17104085 0.28596833 0.98361546 0.07793473 0.6342912 -0.9764682 -0.18758985
-0.33258483 0.5084724 -0.17046624 -0.3483411 -0.73219746 0.88004506 -0.929155 0.73824376
00000000: c2e4 4e3f 7b12 223f 0b72 8dbe 8f85 5dbd
00000010: df74 41bf 5f86 1bbf d73f 22be 62c2 1abe
00000020: 75ef b1be 7bfe 1a3f 781e 3abf 9e2d 1e3f
00000030: 0a6e 863d ed80 e33c 8c79 313f fad5 ba3e
00000040: fb78 7abe fdb8 833f b7a8 fb3d 616d 7a3e
00000050: 1b1a 4a3f 88dd a1bf 5ce8 703f 2227 1a3f
00000060: 59f0 c73c e2ea 65be 57ab 92be d42a 203f
00000070: 4d11 103f 3335 debe 8f53 0fbf 39f1 8a3f
00000080: c5fc 733f 7f46 1cbf d723 693f 1347 a2be
00000090: 1638 103f 82f2 a13e f8f8 8fbf d4b4 3e3f
000000a0: 462c e9be 6bf9 7b3f cd04 82be 5742 453f
000000b0: 5925 853f 4972 0b3e 66b7 1f3f d370 c43d
000000c0: 5e74 5f3f 5525 2fbe 716a 923e 39ce 7b3f
000000d0: 3e9c 9f3d e860 223f d2f9 79bf 8e17 40be
000000e0: 8f48 aabe 3f2b 023f b48e 2ebe c459 b2be
000000f0: 4b71 3bbf a24a 613f 1add 6dbf 8bfd 3c3f

chain.0.odefunc.odefunc.diffeq.layers.0._hyper_gate.weight f4 [64, 1]
-0.33926114 -0.31443396 0.75433874 0.60872364 -0.5003947 1.3005013 0.76064306 -0.009320804
-0.026827672 -0.4447786 -0.3964254 -0.273838 1.2456087 0.8838126 0.17544979 0.80389774
0.44360352 -0.21801245 1.1059752 0.8507131 0.8246802 0.42919078 0.28019089 0.71333313
-0.52050173 1.0698951 0.9470821 0.47584915 0.6502128 0.81640446 0.9149668 0.11784968
0.25178486 1.0886024 0.77500695 0.742633 -0.4939731 1.0680361 1.1097436 0.6748355
1.0670716 0.82033813 0.80393547 0.022893853 -0.16979098 0.53135186 1.1366187 0.48382753
-0.6370476 -0.046436973 0.9074162 -0.19992374 -0.01129491 0.8232891 0.8939032 1.1459795
0.20199363 0.78425086 0.31901985 0.16965975 0.29656938 0.35015187 0.84528244 1.0016645
00000000: a3b3 adbe 7dfd a0be 581c 413f 50d5 1b3f
00000010: de19 00bf d476 a63f 81b9 423f 49b6 18bc
00000020: b5c5 dbbc 05ba e3be 45f8 cabe 7f34 8cbe
00000030: 1b70 9f3f 8b41 623f 1ca9 333e 3ecc 4d3f
00000040: 0020 e33e a83e 5fbe 9890 8d3f 55c8 593f
00000050: 3e1e 533f e5be db3e 2e75 8f3e 009d 363f
00000060: 9a3f 05bf 53f2 883f f973 723f 80a2 f33e
00000070: 5974 263f e2ff 503f 443b 6a3f 2c5b f13d
00000080: f2e9 803e 5357 8b3f db66 463f 321d 3e3f
00000090: 0bea fcbe 68b5 883f 140c 8e3f 05c2 2c3f
000000a0: cd95 883f ae01 523f b7ce 4d3f e48b bb3c
000000b0: b0dd 2dbe ad06 083f b97c 913f 3eb8 f73e
000000c0: 8d15 23bf b234 3ebd 6e4c 683f cfb8 4cbe
000000d0: 490e 39bc 13c3 523f d7d6 643f 75af 923f
000000e0: 6bd7 4e3e aac4 483f 9256 a33e 49bb 2d3e
000000f0: f1d7 973e 1b47 b33e 6e64 583f 8b36 803f

chain.0.odefunc.odefunc.diffeq.layers.0._hyper_gate.bias f4 [64]
0.9354142 0.7854732 -0.7660964 0.64156705 0.6011435 -0.7960452 0.25325578 0.6128609
-0.41800734 -0.582016 -0.07615522 -0.792811 0.6426857 -0.3416183 -0.6092268 -0.85782844
-0.07619709 -0.012489872 -0.6802451 -0.545611 0.8154217 0.66043794 0.2817836 -0.09026842
0.25715634 0.95359284 0.6590459 -0.84360164 0.9172855 -0.14492844 0.49742004 0.30497515
-0.14271769 -0.47480923 -0.40654773 -0.48188582 0.23240112 0.44154966 1.3642601 0.4889843
0.7768025 0.15548295 0.47330356 -0.44047675 -0.79075325 0.19710194 0.018878527 -0.6518107
-0.7354262 -0.332527 -0.8883354 -0.1254563 0.6205065 -0.8130481 -0.1126358 -0.29627976
0.8935634 0.17791432 -0.104503095 0.45766747 0.72994596 0.6062239 0.9266168 -0.01989563
00000000: 4e77 6f3f c614 493f e51e 44bf bd3d 243f
00000010: 8ae4 193f 9ec9 4bbf beaa 813e 74e4 1c3f
00000020: 0f05 d6be 00ff 14bf 45f7 9bbd a9f5 4abf
00000030: 0d87 243f 98e8 aebe 4af6 1bbf a59a 5bbf
00000040: 380d 9cbd 52a2 4cbc 8b24 2ebf 2aad 0bbf
00000050: 7abf 503f 7612 293f f145 903e a6de b8bd
00000060: ffa9 833e a91e 743f 3bb7 283f 47f6 57bf
00000070: 39d3 6a3f 1f68 14be d7ad fe3e b425 9c3e
00000080: 9624 12be 321a f3be 0627 d0be bdb9 f6be
00000090: 8ffa 6d3e cc12 e23e 13a0 ae3f 265c fa3e
000000a0: 87dc 463f ec36 1f3e d854 f23e 2b86 e1be
000000b0: ce6e 4abf 17d5 493e 24a7 9a3c 11dd 26bf
000000c0: e444 3cbf fb40 aabe f369 63bf 9e77 00be
000000d0: 84d9 1e3f ec23 50bf 99ad e6bd fbb1 97be
000000e0: 92c0 643f 2c2f 363e b805 d6bd 6453 ea3e
000000f0: bddd 3a3f 7d31 1b3f c236 6d3f 29fc a2bc

chain.0.odefunc.odefunc.diffeq.layers.1._layer.weight f4 [64, 64]
-0.48564416 -0.4375829 0.5645682 0.25584596 0.11307002 -0.4874099 -0.008781965 -0.36362466
0.31712297 -0.08605138 0.119019225 -0.035550434 -0.20534296 0.13519076 -0.08896981 0.27822503
0.26964432 -0.047276247 -0.23437485 0.08230559 -0.7102661 0.003644309 -0.41229 -0.26539543
0.45020324 -0.86270934 0.2185441 0.33976758 -0.016784655 -0.007965742 0.020713009 -0.027728952
-0.45291302 -0.16295676 -0.13273494 0.30636778 0.099038154 0.81139994 0.25804102 -0.46111444
0.18515776 -0.2862836 0.35234776 0.7589017 -0.2657476 -0.10945313 -0.2060966 0.26725277
-0.07696327 -0.08149439 0.12773189 -0.2432631 -0.11640781 -0.28779945 -0.28269842 -0.6124842
0.4110281 -0.22507925 0.12687771 -0.17899612 -0.053826667 -0.50214154 0.30038062 0.09833335
0.29397282 0.18148825 0.031034494 0.06049936 -0.36469415 -0.14323169 0.06389488 0.396146
0.16258793 -0.15886764 0.05212744 0.09142697 0.36597335 -0.17769991 0.20296451 0.024321254
-0.181602 0.2015097 0.06529874 0.26501873 -0.050048098 -0.104526095 -0.15708338 0.5276126
-0.043942302 -0.16198638 -0.46083474 0.1622018 0.07672355 0.031444497 0.1717167 0.15177941
0.07694227 -0.21159112 0.20723121 0.027431343 0.3026926 0.0697124 -0.1985188 0.13694097
0.16648492 -0.09084697 0.15938845 -0.023887267 -0.029682865 0.19910593 -0.053576626 0.34962866
0.2505912 0.30831224 0.048485782 0.1868621 -0.027908996 -0.08794247 -0.44032374 -0.15872194
-0.16773659 0.1979167 -0.3311175 0.30845213 -0.1675469 0.055561554 -0.27140036 0.25074962
-0.1834741 -0.17905685 -0.14380807 -0.07584509 0.27365056 -0.0612869 -0.09489104 -0.39440638
-0.07518071 0.13324165 0.0014959084 -0.058420923 -0.1897677 0.058939945 -0.16874237 0.12568115
-0.07000151 -0.22882117 0.11709692 -0.19209531 0.14032747 0.036379732 -0.051977757 -0.35430562
0.1324533 0.00908721 0.39364424 -0.2869243 -0.13621953 0.024726396 -0.06871342 -0.109127425
-0.16744666 0.13830118 -0.290499 0.0013241571 -0.2275431 -0.015829435 0.13741438 0.13308814
-0.14550857 -0.04800912 0.09408738 -0.023292873 0.023748402 -0.03708504 0.19501618 -0.28215617
-0.014709143 -0.19036525 0.07772839 0.00053847255 0.010831113 0.06651472 0.12656634 0.23058297
0.22693162 -0.20728609 0.09479946 -0.14790243 0.078287825 -0.037515596 0.34011036 -0.08851913
-0.21409194 -0.12296194 -0.13720442 -0.16537063 -0.048492856 0.09676132 -0.019074135 -0.11044386
-0.11545203 0.17813145 -0.14958039 -0.02070954 -0.16147158 0.14721267 -0.045016974 0.15631963
-0.05876626 -0.16757378 0.016711151 -0.27137715 0.16420044 -0.031621624 0.05406791 -0.08056136
0.056916453 -0.033933103 0.24672286 -0.21815565 0.028596971 0.15219621 -0.15524179 -0.2184807
-0.08384482 -0.057194173 -0.04404283 -0.10559365 -0.18204732 0.016048739 0.02090436 -0.022915766
-0.17678487 0.015436523 -0.056999415 -0.08845087 0.21799266 -0.20188633 0.030823605 -0.041835856
-0.10704149 -0.18115494 0.06392693 0.0065698046 0.13340065 0.115628965 0.15767016 0.19502339
0.05968794 -0.17563733 0.008320118 -0.21257071 -0.034127735 -0.009098202 0.21916883 -0.02090446
00000000: 5aa6 f8be de0a e0be 8b87 103f 3efe 823e
00000010: 4191 e73d ca8d f9be 3be2 0fbc 032d babe
00000020: f15d a23e b53b b0bd 5ac0 f33d 559d 11bd
00000030: 6d45 52be 726f 0a3e ce35 b6bd 8373 8e3e
00000040: d20e 8a3e bda4 41bd f6ff 6fbe d58f a83d
00000050: 00d4 35bf 5cd5 6e3b ad17 d3be e9e1 87be
00000060: 0a81 e63e 85da 5cbf 06ca 5f3e 04f6 ad3e
00000070: f97f 89bc be82 02bc 54ae a93c d427 e3bc
00000080: 37e4 e7be 23de 26be abeb 07be 3ddc 9c3e
00000090: 84d4 ca3d e8b7 4f3f f41d 843e 3117 ecbe
000000a0: ff99 3d3e c493 92be ed66 b43e 6247 423f
000000b0: 1210 88be f628 e0bd fd0a 53be 5bd5 883e
000000c0: eb9e 9dbd 88e6 a6bd 26cc 023e f619 79be
000000d0: 3867 eebd 735a 93be d9bd 90be c4cb 1cbf
000000e0: 4672 d23e 2d7b 66be 3bec 013e c24a 37be
000000f0: 5a79 5cbd 598c 00bf 7dcb 993e ff62 c93d
00000100: 9b83 963e 0ed8 393e 0d3c fe3c 2dce 773d
00000110: 31b9 babe 54ab 12be 52db 823d a6d3 ca3e
00000120: 737d 263e 33ae 22be 9583 553d 103e bb3d
00000130: dc60 bb3e f7f6 35be eed5 4f3e 5e3d c73c
00000140: e0f5 39be 8f58 4e3e 59bb 853d 89b0 873e
00000150: 3cff 4cbd c711 d6bd 77da 20be 9f11 073f
00000160: d8fc 33bd c2df 25be 88f2 ebbe 3b18 263e
00000170: 3d21 9d3d f2cb 003d 81d6 2f3e 106c 1b3e
00000180: e993 9d3d 58ab 58be 6b34 543e b2b7 e03c
00000190: 86fa 9a3e 60c5 8e3d 8348 4bbe 413a 0c3e
000001a0: 067b 2a3e fa0d babd ba36 233e 3baf c3bc
000001b0: 7b29 f3bc 6de2 4b3e 2a73 5bbd 8702 b33e
000001c0: 7d4d 803e 1adb 9d3e 0799 463d c758 3f3e
000001d0: 68a1 e4bc 2f1b b4bd 1d72 e1be 0188 22be
000001e0: 24c3 2bbe adaa 4a3e 3c88 a9be 70ed 9d3e
000001f0: 6a91 2bbe 8394 633d fdf4 8abe 4162 803e
00000200: a2e0 3bbe ae5a 37be 6c42 13be ac54 9bbd
00000210: ed1b 8c3e f907 7bbd 3c56 c2bd a2ef c9be
00000220: 58f8 99bd 8070 083e 5b12 c43a c74a 6fbd
00000230: 7752 42be 036b 713d cdca 2cbe 8fb2 003e
00000240: f45c 8fbd 1950 6abe 83d0 ef3d a2b4 44be
00000250: 01b2 0f3e ea02 153d a1e6 54bd 8c67 b5be
00000260: d6a1 073e 85e2 143c bd8b c93e bee7 92be
00000270: 227d 0bbe 038f ca3c 9fb9 8cbd 337e dfbd
00000280: 2377 2bbe d39e 0d3e 49bc 94be 578f ad3a
00000290: 0f01 69be bbac 81bc 5bb6 0c3e 4248 083e
000002a0: 3300 15be 36a5 44bd e2b0 c03d b2d0 bebc
000002b0: 028c c23c 7ce6 17bd 52b2 473e c676 90be
000002c0: 9efe 70bc 1cef 42be 1030 9f3d 4828 0d3a
000002d0: fb74 313c df38 883d 9b9a 013e f11d 6c3e
000002e0: c360 683e ce42 54be 3826 c23d bc73 17be
000002f0: 5e55 a03d f4a9 19bd f222 ae3e 8549 b5bd
00000300: eb3a 5bbe 78d3 fbbd 517f 0cbe eb56 29be
00000310: 72a0 46bd cd2a c63d 5c41 9cbc 6430 e2bd
00000320: 1d72 ecbd 1768 363e 9a2b 19be 0ea7 a9bc
00000330: ce58 25be ebbe 163e b863 38bd 4112 203e
00000340: e4b4 70bd 7698 2bbe d3e5 883c f2f1 8abe
00000350: 2924 283e ad85 01bd 5076 5d3d 5bfd a4bd
00000360: 3a21 693d 70fd 0abd eba4 7c3e 3264 5fbe
00000370: 3244 ea3c 53d9 1b3e b4f7 1ebe 68b9 5fbe
00000380: d5b6 abbd 7044 6abd 4166 34bd 7c41 d8bd
00000390: 9d6a 3abe a578 833c 9f3f ab3c d8b9 bbbc
000003a0: 1807 35be 78e9 7c3c 3878 69bd bb25 b5bd
000003b0: 7839 5f3e 4abb 4ebe c981 fc3c 135c 2bbd
000003c0: 9238 dbbd ae80 39be 1fec 823d 8447 d73b
000003d0: 2e9a 083e e1ce ec3d 4974 213e 36b4 473e
000003e0: 577b 743d 46da 33be 1b51 083c 23ac 59be
000003f0: 86c9 0bbd a010 15bc cb6d 603e d53f abbc

chain.0.odefunc.odefunc.diffeq.layers.1._layer.bias f4 [64]
-0.2709352 0.0726983 -0.05136768 0.0074373307 -0.15162763 0.14934029 0.07268979 0.23452757
0.17512918 0.056693017 -0.0022636955 0.053837754 0.15724166 -0.11311784 -0.21235377 0.05667854
-0.19016615 0.076460764 0.03169704 0.09171808 -0.18648423 0.13075097 -0.014845179 0.07961569
0.049735874 -0.1003698 -0.0013535358 0.011966998 -0.21046232 0.1327179 0.20626561 -0.08112839
-0.053028144 -0.042287804 -0.008948891 0.1519618 0.0683052 0.1021218 0.11025639 0.10165012
-0.048168536 -0.04517139 0.041802276 0.03604018 -0.10211691 0.12833092 -0.007252608 0.29232073
0.02772768 0.088904135 0.39371848 0.032758333 0.481503 0.027810369 -0.03353706 -0.19141352
0.1113578 -0.18063948 -0.27387416 0.031807538 -0.12894845 -0.42710626 0.01448584 0.078340344
00000000: 05b8 8abe d9e2 943d eb66 52bd dab4 f33b
00000010: 4644 1bbe a9ec 183e 62de 943d ff27 703e
00000020: 1055 333e f036 683d 825a 14bb fa84 5c3d
00000030: f503 213e 53aa e7bd 4473 59be c227 683d
00000040: eaba 42be 7697 9c3d c1d4 013d b0d6 bb3d
00000050: b9f5 3ebe 95e3 053e 3239 73bc 8d0d a33d
00000060: d8b7 4b3d af8e cdbd 2069 b1ba 3a11 443c
00000070: 6f83 57be 34e7 073e 4b37 533e a426 a6bd
00000080: 0a34 59bd fa35 2dbd 5f9e 12bc e09b 1b3e
00000090: 99e3 8b3d 3c25 d13d 1ace e13d f02d d03d
000000a0: 5f4c 45bd a305 39bd dd38 2b3d de9e 133d
000000b0: ac22 d1bd 2e69 033e 49a7 edbb 10ab 953e
000000c0: 2925 e33c 5f13 b63d 7895 c93e 9a2d 063d
000000d0: 9087 f63e 92d2 e33c 285e 09bd e801 44be
000000e0: 8f0f e43d 8ef9 38be 3c39 8cbe 9f48 023d
000000f0: 100b 04be acad dabe 0456 6d3c e770 a03d

chain.0.odefunc.odefunc.diffeq.layers.1._hyper_bias.weight f4 [64, 1]
-0.8651398 0.8961161 0.15940031 0.48023897 -0.8413571 -0.21781054 0.12541431 0.19159643
-0.655886 0.9952319 -0.5647541 0.6946224 0.9449703 0.6641967 0.7096172 0.21552317
-0.33225867 -0.79467934 0.87291515 -0.07010342 -0.96989447 1.0869582 0.15212536 -0.3006568
0.8796057 0.501793 -0.117423594 -0.34572244 -0.24343747 0.3105128 1.2161765 0.019596828
0.9146219 0.11922357 0.17040297 0.38810772 -0.17989343 0.17253338 0.10446775 0.57854885
-0.57398784 -0.21105927 0.60482967 -0.59157914 0.19419438 0.28300688 0.84139824 -0.30175856
0.031285655 -0.48555696 0.38582805 1.0258905 0.79511267 -0.8399298 -0.08056642 0.0081732515
-0.4396383 -0.33316877 -0.9409555 0.90381384 0.29698476 -0.52066076 0.052631214 0.861609
00000000: cd79 5dbf dd67 653f d639 233e e2e1 f53e
00000010: 2e63 57bf ba09 5fbe 9c6c 003e db31 443e
00000020: 25e8 27bf 85c7 7e3f ba93 10bf c6d2 313f
00000030: 93e9 713f cc08 2a3f 79a9 353f 1bb2 5c3e
00000040: cf1d aabe 1b70 4bbf 5e77 5f3f 6292 8fbd
00000050: 014b 78bf 7221 8b3f c0c6 1b3e b0ef 99be
00000060: d72d 613f 8275 003f c87b f0bd 8802 b1be
00000070: ac47 79be 89fb 9e3e acab 9b3f 8789 a03c
00000080: a924 6a3f 7d2b f43d 1e7e 2e3e 0eb6 c63e
00000090: fc35 38be 97ac 303e 30f3 d53d c71b 143f
000000a0: def0 12bf ec1f 58be 1ed6 1a3f bb71 17bf
000000b0: e4da 463e 47e6 903e e065 573f 1980 9abe
000000c0: 6325 003d ec9a f8be 418b c53e 6150 833f
000000d0: 818c 4b3f a405 57bf 0200 a5bd 1ae9 053c
000000e0: 4518 e1be 1995 aabe 76e2 70bf 5860 673f
000000f0: 630e 983e 064a 05bf d493 573d 6892 5c3f

chain.0.odefunc.odefunc.diffeq.layers.1._hyper_gate.weight f4 [64, 1]
2.7399697 -0.41881618 0.65794843 -0.21405295 0.42327732 0.35254592 0.2659418 -0.4288737
0.45246774 0.036101677 0.799226 0.00068877917 1.3081253 0.19105808 -0.09843494 0.20210797
0.73870724 0.9829343 0.2653738 0.3864852 1.28114 -0.3420745 0.57287806 0.03591488
-0.6406997 1.1541214 -0.7825146 0.6909941 0.39580673 -1.0176889 0.7576132 0.82926893
-0.62074065 0.45247477 0.22292748 0.98623335 0.061941847 -0.52607566 -0.7607612 -0.44259328
1.4267535 -0.22270624 -0.3740883 0.8115399 -0.46715218 1.1091421 -0.28918475 0.29848537
0.9118239 -0.18563786 3.6190925 -0.05231421 2.1127527 0.4682739 -0.50338817 0.842395
-0.729341 0.7815465 3.4413536 0.9938668 -0.5351081 3.5985725 1.2938482 -0.4676034
00000000: aa5b 2f40 136f d6be 4f6f 283f b230 5bbe
00000010: ceb7 d83e e680 b43e 8629 883e 5595 dbbe
00000020: daa9 e73e 5adf 133d 139a 4c3f 308f 343a
00000030: a670 a73f bba4 433e 4298 c9bd 64f5 4e3e
00000040: eb1b 3d3f 95a1 7b3f 13df 873e 63e1 c53e
00000050: 65fc a33f 6424 afbe 23a8 123f 7b1b 133d
00000060: e504 24bf 40ba 933f e052 48bf fde4 303f
00000070: 2ea7 ca3e a143 82bf f0f2 413f f84a 543f
00000080: dce8 1ebf c6aa e73e 1a47 643e ca79 7c3f
00000090: bcb6 7d3d e5ac 06bf 3fc1 42bf 969b e2be
000000a0: dc9f b63f 1b0d 64be 8088 bfbe 14c1 4f3f
000000b0: 922e efbe 5ef8 8d3f 0610 94be 13d3 983e
000000c0: 4b6d 693f da17 3ebe 369f 6740 6d47 56bd
000000d0: 5737 0740 99c1 ef3e 0cde 00bf 33a7 573f
000000e0: 17b6 3abf 6e13 483f 233f 5c40 0e6e 7e3f
000000f0: d8fc 08bf 034f 6640 d19c a53f b669 efbe

chain.0.odefunc.odefunc.diffeq.layers.1._hyper_gate.bias f4 [64]
0.68884534 0.60033524 0.92888945 -0.22809327 -0.57705563 -0.27278504 0.10108001 0.3871145
-0.8255589 0.70150363 -0.6864975 1.1141855 0.62588346 -0.7431025 -0.68089443 0.8889102
1.575824 0.39581925 0.02008217 0.9976984 -0.08730937 -0.6242195 0.48172832 0.83386016
0.58752626 1.0683696 -0.30111733 -0.6610411 0.81076026 0.20491497 -0.55744535 -0.85274786
1.0488853 0.16589959 0.8741814 0.51650125 -0.89282024 0.29048848 1.061812 0.51557726
0.23113017 -0.46830016 -0.18228339 0.694271 0.90401095 -0.28748375 0.8831435 0.07373837
-0.24584821 0.2577115 2.1283672 0.19982588 1.9319304 0.8669675 0.6187013 1.2013863
-0.24834165 -0.887006 1.2845919 -0.29580298 -0.48265505 1.5751721 1.56597 0.64988357
00000000: 2b58 303f 92af 193f b3cb 6d3f 4891 69be
00000010: ebb9 13bf 7baa 8bbe 0903 cf3d df33 c63e
00000020: d457 53bf be95 333f 4dbe 2fbf a19d 8e3f
00000030: e639 203f f73b 3ebf 194f 2ebf 9e8f 633f
00000040: 9ab4 c93f d2a8 ca3e 5d83 a43c 2a69 7f3f
00000050: 41cf b2bd d9cc 1fbf 18a5 f63e dc77 553f
00000060: 1f68 163f 56c0 883f 0d2c 9abe fd39 29bf
00000070: fc8d 4f3f 3bd5 513e bdb4 0ebf af4d 5abf
00000080: e041 863f 95e1 293e 5aca 5f3f 6d39 043f
00000090: de8f 64bf e8ba 943e 75e9 873f dffc 033f
000000a0: 63ad 6c3e 0ac5 efbe 7fa8 3abe bfbb 313f
000000b0: 436d 673f 1231 93be b115 623f 2404 973d
000000c0: a2bf 7bbe c3f2 833e 2b37 0840 289f 4c3e
000000d0: 7f49 f73f 95f1 5d3f 3563 1e3f 07c7 993f
000000e0: 464d 7ebe d312 63bf 826d a43f 7d73 97be
000000f0: 901e f7be 3d9f c93f b471 c83f c55e 263f

chain.0.odefunc.odefunc.diffeq.layers.2._layer.weight f4 [64, 64]
-0.065122515 -0.15384063 0.2623206 0.12608983 0.12690966 0.107713066 -0.34214756 -0.2134793
-0.09105908 -0.027443806 -0.16107248 -0.097272135 -0.097439304 0.19839276 0.22927748 -0.26805913
0.093301155 0.28864533 -0.19441618 -0.2071093 -0.028151387 -0.058611203 0.016890956 -0.09689327
-0.2519426 0.16347943 -0.24079032 0.17211246 0.1381401 -0.20470548 -0.12736723 -0.29057157
-0.2779691 -0.018720852 0.0399588 -0.03842419 -0.1038696 -0.28869605 -0.19779988 0.12323489
-0.13048089 -0.06469934 -0.08882416 -0.19449304 0.11858007 -0.08026718 -0.26022303 -0.15427583
-0.0080934055 -0.21884516 0.025227783 -0.2205111 -0.029631123 -0.16951734 0.3211332 0.19361247
-0.04813337 0.08887874 0.10689814 -0.33316115 -0.07321501 0.088964395 0.23983483 -0.22960481
-0.32140648 0.076090485 -0.27714404 -0.048818167 0.13965152 -0.19340919 -0.04912716 -0.07221848
-0.03698566 -0.1066709 -0.17512096 -0.07509812 -0.15617862 0.21021387 0.25834867 0.10844729
0.021232879 -0.05703333 -0.086501405 0.34454632 -0.26848885 0.0015915289 -0.041399296 0.16770603
0.16361701 0.09937128 0.11395169 0.11294849 0.16679803 0.041745674 -0.3612754 0.039190028
0.09300795 0.28543335 0.08493737 0.0013139064 -0.22299413 0.031000553 -0.15603097 0.23187642
-0.045645457 -0.0030879383 0.021797594 -0.11495611 -0.27039638 -0.109878086 0.16820076 -0.00897655
-0.18091892 -0.019898945 0.28422913 0.046234302 0.3468652 0.04560288 0.09120357 -0.20856582
-0.09097361 -0.0030729375 -0.24796967 -0.11216636 0.0060011684 -0.28975058 0.011772581 0.21351357
-0.15600556 0.024888244 0.062569074 0.04317727 0.08305255 -0.07440233 -0.07027033 -0.2072783
-0.09776631 -0.078122765 -0.02005919 -0.03805486 -0.33439857 0.13735849 0.012568215 0.09085712
0.115708634 0.16361287 -0.016427785 -0.0477493 -0.20802768 -0.17335908 0.025550768 0.03143735
0.12561274 0.05413508 -0.12214792 -0.021586725 0.043214217 0.06408461 -0.36704674 0.0066304416
0.07736331 0.07759909 -0.22072093 -0.0096354475 -0.0650528 -0.1274749 0.024092387 -0.062834
-0.013918385 0.11791302 -0.08961873 -0.0882529 -0.2397092 -0.16058311 0.09344905 -0.23921113
0.0034868447 -0.088967584 0.10958489 -0.003757511 0.3159144 0.20623507 -0.06965928 -0.13875887
0.067120366 0.26049602 -0.1997503 0.045650624 -0.09292661 -0.22362407 0.04631762 0.1311701
0.46165994 -0.038756065 0.081407025 -0.06648072 -0.102058604 0.11805223 -0.18665329 0.19280465
0.55199623 0.2374231 0.32431617 -0.14241499 0.16448736 -0.4342578 -0.33237785 -0.06058201
0.24179497 -0.027864177 -0.23929368 -0.09474179 0.38291052 0.046439603 -0.20256281 -0.39657396
-0.15732586 -0.2526618 0.07827264 -0.05033662 -0.033760324 0.047185075 0.2928677 0.10480598
-0.06690916 -0.4362455 0.054829657 0.018099645 0.48208886 -0.10805294 -0.16710603 -0.29058823
0.17727831 0.02978016 0.056451634 0.21868736 0.21767591 0.28608403 -0.20245896 0.3215698
0.14118898 0.17423548 -0.33376887 0.08489428 -0.4021063 -0.011776703 0.10718104 0.3645294
0.2709581 -0.18977123 0.46819875 -0.36243665 0.12608421 0.52167076 0.27807602 -0.13622017
00000000: f45e 85bd 6688 1dbe e34e 863e b11d 013e
00000010: 9bf4 013e ab98 dc3d f72d afbe 519a 5abe
00000020: 2f7d babd d5d1 e0bc 2ff0 24be 9d36 c7bd
00000030: 428e c7bd 7927 4b3e b7c7 6a3e 0c3f 89be
00000040: ad14 bf3d 52c9 933e 0915 47be 7614 54be
00000050: bd9d e6bc 4d12 70bd e75e 8a3c fb6f c6bd
00000060: 9ffe 80be 2767 273e bd91 76be 403e 303e
00000070: 9974 0d3e 509e 51be 8e6c 02be ccc5 94be
00000080: f751 8ebe 795c 99bc d7ab 233d af62 1dbd
00000090: 96b9 d4bd f8cf 93be 0d8c 4abe 9362 fc3d
000000a0: c89c 05be 1681 84bd 71e9 b5bd 2f29 47be
000000b0: 1cda f23d 1f63 a4bd f43b 85be 7cfa 1dbe
000000c0: 349a 04bc f218 60be 7faa ce3c a9cd 61be
000000d0: f8bc f2bc f495 2dbe 926b a43e 5942 463e
000000e0: 7f27 45bd 0f06 b63d 69ed da3d 1994 aabe
000000f0: c0f1 95bd f732 b63d 4397 753e 861d 6bbe
00000100: 648f a4be 54d5 9b3d d3e5 8dbe 8ff5 47bd
00000110: cf00 0f3e 0f0d 46be 9039 49bd 48e7 93bd
00000120: 477e 17bd 4676 dabd e952 33be 0bcd 99bd
00000130: 4aed 1fbe 4e42 573e 4746 843e 9d19 de3d
00000140: 93f0 ad3c c89b 69bd a627 b1bd 6068 b03e
00000150: 5f77 89be d99a d03a 4f92 29bd 21bb 2b3e
00000160: 388b 273e 2b83 cb3d 815f e93d 8a51 e73d
00000170: 1acd 2a3e 83fd 2a3d 17f9 b8be b985 203d
00000180: f47a be3d 5224 923e a5f3 ad3d 6237 ac3a
00000190: 9358 64be dff4 fd3c 95c6 1fbe 0371 6d3e
000001a0: bbf6 3abd 025f 4abb de90 b23c 1c6e ebbd
000001b0: 6571 8abe c307 e1bd d23c 2c3e 6112 13bc
000001c0: cf42 39be 1d03 a3bc 7b86 913e 2e60 3d3d
000001d0: 5198 b13e 16ca 3a3d f0c8 ba3d 4792 55be
000001e0: 5f50 babd 5663 49bb c3eb 7dbe 7ab7 e5bd
000001f0: 73a5 c43b 305a 94be c9e1 403c 4da3 5a3e
00000200: ecbf 1fbe 6ee2 cb3c 3724 803d a6da 303d
00000210: 7517 aa3d 4060 98bd e4e9 8fbd c340 54be
00000220: b439 c8bd d4fe 9fbd 2c53 a4bc 6adf 1bbd
00000230: 4a36 abbe b4a7 0c3e eaea 4d3c 4c13 ba3d
00000240: a6f8 ec3d 228a 273e 9093 86bc c594 43bd
00000250: 3505 55be 0b85 31be d84f d13c 73c4 003d
00000260: a0a0 003e bfbc 5d3d b028 fabd a5d6 b0bc
00000270: 6401 313d cb3e 833d 8ded bbbe 2d44 d93b
00000280: a870 9e3d 46ec 9e3d ab04 62be ffdd 1dbc
00000290: 673a 85bd c888 02be 665d c53c 1daf 80bd
000002a0: f009 64bc 627c f13d 068a b7bd f0bd b4bd
000002b0: 5476 75be e66f 24be 3762 bf3d c3f3 74be
000002c0: 8c83 643b a334 b6bd 0b6e e03d 9340 76bb
000002d0: 88bf a13e 492f 533e 86a9 8ebd ce16 0ebe
000002e0: 6776 893d bc5f 853e 588b 4cbe 26fc 3a3d
000002f0: 4e50 bebd b5fd 64be 8bb7 3d3d 7451 063e
00000300: b15e ec3e aebe 1ebd bab8 a63d 0b27 88bd
00000310: 1a04 d1bd 5ec5 f13d 0a22 3fbe 956e 453e
00000320: a04f 0d3f 0b1f 733e c50c a63e 3cd5 11be
00000330: 606f 283e 0a57 debe 6e2d aabe d724 78bd
00000340: 1a99 773e 6a43 e4bc 6709 75be fc07 c2bd
00000350: d90c c43e 7437 3e3d a06c 4fbe be0b cbbe
00000360: 081a 21be e35c 81be 684d a03d c62d 4ebd
00000370: 4448 0abd 2345 413d c1f2 953e 85a4 d63d
00000380: ab07 89bd 925b dfbe 1095 603d b545 943c
00000390: 5ad4 f63e dc4a ddbd d81d 2bbe fbc7 94be
000003a0: 7288 353e 86f5 f33c d439 673d 94ef 5f3e
000003b0: 6fe6 5e3e 9b79 923e 6751 4fbe cca4 a43e
000003c0: d893 103e c96a 323e c1e3 aabe 0ddd ad3d
000003d0: e1e0 cdbe 13f3 40bc bc81 db3d 99a3 ba3e
000003e0: 05bb 8a3e 6453 42be bfb7 ef3e 4c91 b9be
000003f0: 381c 013e 378c 053f fb5f 8e3e 4d7d 0bbe

chain.0.odefunc.odefunc.diffeq.layers.2._layer.bias f4 [64]
-0.020592626 -0.14933491 -0.24296097 0.057298627 -0.060929418 0.052291576 -0.29899666 -0.22308181
-0.065084875 0.16469447 -0.10515702 -0.05578168 0.032675203 0.029234773 0.09326539 0.019273397
0.0972678 0.023753384 0.09814794 0.31290564 0.020499973 0.30747792 0.41230235 0.06971224
0.19297574 -0.01591425 -0.09049898 -0.0114262095 0.23980035 -0.32644838 0.1997503 0.11751356
0.122232154 0.0012678554 0.1149727 -0.0055950577 0.279249 0.12876514 0.012890492 -0.15420851
-0.17686121 -0.17247629 0.027881613 -0.21137416 -0.32482135 0.15606715 0.20985204 0.0009105649
-0.19055454 0.27923295 -0.2705749 -0.0835236 -0.2165252 -0.11559032 -0.12789655 -0.18486919
0.075428344 0.10946489 -0.18218319 -0.2441231 -0.038354833 0.009677276 0.19202457 -0.19264388
00000000: deb1 a8bc 40eb 18be c3ca 78be f7b1 6a3d
00000010: 2091 79bd b12f 563d 1716 99be 8f6f 64be
00000020: 384b 85bd aba5 283e 905c d7bd 557b 64bd
00000030: 6fd6 053d c37d ef3c ed01 bf3d 3ee3 9d3c
00000040: 5734 c73d 7596 c23c ca01 c93d 2b35 a03e
00000050: 8fef a73c bf6d 9d3e 4b19 d33e 4ac5 8e3d
00000060: 6f9b 453e 9a5e 82bc 8757 b9bd ff34 3bbc
00000070: 398e 753e 3e24 a7be 588b 4c3e f3aa f03d
00000080: da54 fa3d 2b2e a63a cf76 eb3d bf56 b7bb
00000090: baf9 8e3e 02db 033e a432 533c d6e8 1dbe
000000a0: 1b1b 35be a09d 30be fb67 e43c 7872 58be
000000b0: fc4e a6be 11d0 1f3e 74e3 563e fab2 6e3a
000000c0: bb20 43be 9ff7 8e3e cb88 8abe 6c0e abbd
000000d0: c8b8 5dbe 9eba ecbd 50f7 02be 594e 3dbe
000000e0: 2d7a 9a3d 212f e03d 3b8e 3abe 68fb 79be
000000f0: f519 1dbd 708d 1e3c 17a2 443e 7044 45be

chain.0.odefunc.odefunc.diffeq.layers.2._hyper_bias.weight f4 [64, 1]
-0.35438308 -0.08704682 -0.53528947 -0.6350011 -0.5998084 -0.8125234 0.51010185 -0.46879262
-0.48249173 -0.39010274 0.059159175 0.50330555 -0.28196567 -0.14863281 -0.13669994 -0.5035765
0.31529722 -0.4861799 -0.1869072 0.9637507 0.8546435 0.13974954 -0.26292133 -0.46677297
1.3769953 -0.81416726 0.58973324 -0.6389774 0.34337586 0.069844104 0.81957364 -0.644214
-0.7375212 -0.3114358 0.15124524 0.7850952 0.44340843 1.0948263 -0.773722 0.28156903
-1.1265229 0.604371 -0.5080567 0.5092276 0.036608543 0.63265896 1.145851 -0.68432075
0.6771847 -0.32797226 -0.36917388 -1.084178 -0.6423288 0.6063871 0.14792988 -1.0756463
0.46504 0.02165357 -0.43493053 -1.44188 -0.3970694 0.39213368 0.5577318 -1.0904557
00000000: b371 b5be 9a45 b2bd bb08 09bf 6f8f 22bf
00000010: 0b8d 19bf 8901 50bf 0996 023f 9605 f0be
00000020: 2809 f7be 8cbb c7be e450 723d a2d8 003f
00000030: ce5d 90be 3333 18be 12fb 0bbe 64ea 00bf
00000040: a36e a13e 92ec f8be 9a64 3fbe 5eb8 763f
00000050: ebc9 5a3f 811a 0f3e a09d 86be defc eebe
00000060: 6241 b03f 446d 50bf c2f8 163f 0694 23bf
00000070: f6ce af3e 6d0a 8f3d 94cf 513f 35eb 24bf
00000080: 30ce 3cbf 8374 9fbe 08e0 1a3e 00fc 483f
00000090: 6e06 e33e 4523 8c3f a512 46bf d129 903e
000000a0: e731 90bf 0fb8 1a3f 0110 02bf bd5c 023f
000000b0: d7f2 153d f0f5 213f 3fab 923f a52f 2fbf
000000c0: fa5b 2d3f fbeb a7be 5c04 bdbe 58c6 8abf
000000d0: a96f 24bf 2f3c 1b3f ee7a 173e c7ae 89bf
000000e0: b919 ee3e d462 b13c 37af debe 868f b8bf
000000f0: ae4c cbbe bfc5 c83e 83c7 0e3f 0d94 8bbf

chain.0.odefunc.odefunc.diffeq.layers.2._hyper_gate.weight f4 [64, 1]
0.23925489 1.2596416 -0.19578612 1.2971306 0.17174007 0.85721195 0.73910254 0.6296649
2.5008445 0.58819944 1.5132114 0.14879666 1.8096118 0.77372557 0.95993376 0.82989424
-0.7550267 0.006917741 1.0419736 0.31563315 0.92597336 1.5725601 -0.17969215 0.77447987
0.9283385 0.18374062 0.38691357 0.9180482 0.55452394 0.6250756 0.4808075 0.29434088
0.16730277 1.8043151 0.4166719 0.8777702 1.2313141 0.909493 0.67488843 1.1362758
1.2075244 1.5059208 0.42141008 2.1100948 1.211468 1.0175714 1.3568369 0.49939063
0.99601185 -0.19679147 -0.027190918 -1.0254148 0.08500917 0.4539697 0.5733249 1.563142
2.0628362 0.0076947184 1.3153548 0.21335602 -0.5049222 0.1505927 1.5735961 -0.5819758
00000000: 3cff 743e f03b a13f 287c 48be 6008 a63f
00000010: a1dc 2f3e 3e72 5b3f d335 3d3f b831 213f
00000020: d60d 2040 3d94 163f e9b0 c13f 275e 183e
00000030: 5ca1 e73f e112 463f 38be 753f f373 543f
00000040: 6e49 41bf 38ae e23b 645f 853f ab9a a13e
00000050: 970c 6d3f a649 c93f 3801 38be 5044 463f
00000060: 98a7 6d3f 8026 3c3e 8919 c63e 3505 6b3f
00000070: 48f5 0d3f f404 203f 672c f63e d9b3 963e
00000080: 6b51 2b3e ccf3 e63f 0556 d53e 8cb5 603f
00000090: b39b 9d3f 89d4 683f 7dc5 2c3f 7c71 913f
000000a0: 2990 9a3f 03c2 c03f 10c3 d73e cb0b 0740
000000b0: 6211 9b3f c83f 823f d5ac ad3f 21b0 ff3e
000000c0: a2fa 7e3f b483 49be 7dbf debc cb40 83bf
000000d0: 4a19 ae3d b76e e83e 6cc5 123f 0915 c83f
000000e0: 8205 0440 fa23 fc3b 8c5d a83f 007a 5a3e
000000f0: 9542 01bf f934 1a3e 996b c93f 5efc 14bf

chain.0.odefunc.odefunc.diffeq.layers.2._hyper_gate.bias f4 [64]
0.75484264 -0.32548997 -0.7264297 0.8472238 0.18370411 0.06031404 1.4763769 0.26950496
1.3132576 0.53261435 0.38167858 0.7638194 -0.26606008 0.0922967 0.33856034 0.54912317
0.9622452 0.57982165 -0.7056956 0.18853338 0.7407232 0.59345317 -0.006267935 0.520659
-0.28122932 -0.20278637 1.2919632 1.1375241 1.0057079 -0.5400636 0.15417907 0.11571233
-0.28080383 0.47417822 0.12013959 -0.07034072 0.7592184 0.218115 0.78313684 1.2443892
-0.04807043 1.0984482 0.8892732 1.9608282 2.0138776 1.2321694 -0.62994605 0.075025715
0.68729275 -0.6051934 0.21310566 -0.013666162 0.28333047 0.4694023 -0.59100085 -0.13577107
0.2680607 0.0039605238 0.8666556 -0.67504144 1.1439406 0.5952319 0.6674847 0.0076726363
00000000: 5e3d 413f 9fa6 a6be 4cf7 39bf a9e3 583f
00000010: ee1c 3c3e db0b 773d ebf9 bc3f 8efc 893e
00000020: d318 a83f 6a59 083f 606b c33e ab89 433f
00000030: 0739 88be 0d06 bd3d c857 ad3e 5693 0c3f
00000040: b455 763f 316f 143f 78a8 34bf e50e 413e
00000050: 09a0 3d3f 8cec 173f 4063 cdbb e949 053f
00000060: 4afd 8fbe 3ba7 4fbe 0d5f a53f 649a 913f
00000070: 09bb 803f 9c41 0abf 1ee1 1d3e 96fa ec3d
00000080: 85c5 8fbe 7dc7 f23e bf0b f63d cc0e 90bd
00000090: 235c 423f 8a59 5f3e a87b 483f 2548 9f3f
000000a0: 80e5 44bd f399 8c3f 69a7 633f 6bfc fa3f
000000b0: 5fe3 0040 bab7 9d3f 2544 21bf 15a7 993d
000000c0: 6bf2 2f3f f4ed 1abf 5f38 5a3e 0ae8 5fbc
000000d0: b110 913e 8055 f03e d54b 17bf 9207 0bbe
000000e0: 413f 893e 48c7 813b 24dd 5d3f 84cf 2cbf
000000f0: a56c 923f 1e61 183f 47e0 2a3f bd6a fb3b

chain.0.odefunc.odefunc.diffeq.layers.3._layer.weight f4 [2, 64]
0.024511946 -0.22116272 -0.23484261 0.37537676 -0.6116366 0.17754629 0.11859751 -0.36903796
0.42999563 -0.040111512 0.15309773 0.16013366 -0.34029233 -0.25826657 0.2897382 -0.4245348
-0.14380455 -0.06318274 0.13628276 0.13141504 0.1991256 0.047460526 0.27071953 -0.22399125
0.47064632 -0.097558364 -0.15319659 0.12366718 0.17168388 -0.114926554 0.66260636 -0.0055113765
0.04944879 0.38856664 0.03474193 -0.17145668 0.038026687 0.42704648 -0.083549835 -0.23072465
-0.7106277 -0.2344366 0.24485937 -0.5981584 0.1231302 0.26148602 0.5018637 0.18291761
-0.37351492 0.10747613 -0.07936527 0.01417985 0.20285223 -0.28080738 -0.16313808 -0.39987543
0.35289735 -0.19700265 -0.39447072 -0.81826377 0.20853813 -0.17405151 -0.35848814 -0.36199826
-0.20694496 0.37761226 0.74630976 -0.14633292 -0.4608588 0.0033206835 0.27494097 0.17861095
0.020408053 0.3351727 0.903664 -0.18912835 -0.3684009 -0.07755017 0.15050107 -0.34464374
0.16745487 0.31315097 0.09104633 -0.10614787 0.021767708 -0.31465718 -0.009724517 -0.0840334
0.119132824 0.0779248 0.0102047585 -0.22246541 0.19485877 0.55152434 0.34545338 0.26609844
0.061511576 -0.08730443 -0.8099064 -0.08908297 -0.33666056 -0.79038775 0.24954267 -0.43226355
0.7472088 -0.13839181 -0.030609425 -0.030538965 0.31879753 0.16929851 -0.6954466 -0.014224475
0.06276345 0.09546198 0.20735621 0.21856524 -0.08207622 0.078118555 -0.13781832 0.7319642
0.40111718 -0.049669027 0.09837198 0.8527845 -0.19736418 0.00651833 0.03746615 0.79418623
00000000: 47cd c83c 7b78 62be 957a 70be 6231 c03e
00000010: 3794 1cbf b2ce 353e 40e3 f23d 8bf2 bcbe
00000020: 6328 dc3e f84b 24bd a7c5 1c3e 14fa 233e
00000030: cc3a aebe 843b 84be 9158 943e a05c d9be
00000040: 8041 13be f465 81bd b58d 0b3e aa91 063e
00000050: 95e7 4b3e f865 423d c09b 8a3e f65d 65be
00000060: 8ef8 f03e aecc c7bd 91df 1cbe 3845 fd3d
00000070: e6cd 2f3e 9d5e ebbd 92a0 293f c798 b4bb
00000080: d08a 4a3d 35f2 c63e 8e4d 0e3d 5792 2fbe
00000090: dfc1 1b3d d6a5 da3e 2d1c abbd 1543 6cbe
000000a0: b2eb 35bf 2610 70be 6abc 7a3e e920 19bf
000000b0: b02b fc3d 7fe1 853e 247a 003f c14e 3b3e
000000c0: 593d bfbe 721c dc3d 428a a2bd 9a52 683c
000000d0: 7fb8 4f3e fcc5 8fbe ab0d 27be 79bc ccbe
000000e0: f6ae b43e 10bb 49be 11f8 c9be bc79 51bf
000000f0: 058b 553e 8f3a 32be c28b b7be d657 b9be
00000100: 61e9 53be 6556 c13e 280e 3f3f 4cd8 15be
00000110: aff5 ebbe d39f 593b 10c5 8c3e cae5 363e
00000120: ca2e a73c c29b ab3e 8656 673f ddaa 41be
00000130: 0b9f bcbe a0d2 9ebd f41c 1a3e 2575 b0be
00000140: 4a79 2b3e 5355 a03e 8076 ba3d 0e64 d9bd
00000150: 3152 b23c bf1a a1be 9553 1fbc b419 acbd
00000160: e9fb f33d 0a97 9f3d dc31 273c f9cd 63be
00000170: 0f89 473e b330 0d3f 44df b03e 0e3e 883e
00000180: 90f3 7b3d aacc b2bd 0756 4fbf 2271 b6bd
00000190: c65e acbe da56 4abf 1d88 7f3e a651 ddbe
000001a0: 1349 3f3f 95b6 0dbe 9ec0 fabc da2c fabc
000001b0: 6e39 a33e 975c 2d3e ca08 32bf c60d 69bc
000001c0: 208a 803d 9281 c33d 3055 543e 91cf 5f3e
000001d0: 9417 a8bd 9ffc 9f3d 3f20 0dbe 0162 3b3f
000001e0: 3b5f cd3e c071 4bbd 4077 c93d 1650 5a3f
000001f0: d619 4abe b797 d53b 1b76 193d ca4f 4b3f

chain.0.odefunc.odefunc.diffeq.layers.3._layer.bias f4 [2]
0.43626907 -0.11860498
00000000: a95e df3e 2be7 f2bd

chain.0.odefunc.odefunc.diffeq.layers.3._hyper_bias.weight f4 [2, 1]
1.4512423 0.21511994
00000000: 4fc2 b93f 6748 5c3e

chain.0.odefunc.odefunc.diffeq.layers.3._hyper_gate.weight f4 [2, 1]
0.6807163 0.5921966
00000000: 6c43 2e3f 329a 173f

chain.0.odefunc.odefunc.diffeq.layers.3._hyper_gate.bias f4 [2]
0.017025605 -0.097425595
00000000: 4879 8b3c 1287 c7bd
